…
2020-07-13 19:10:51.717505: I tensorflow/core/common_runtime/gpu/gpu_device.cc:1178] 0:   N
2020-07-13 19:10:51.731492: I tensorflow/core/common_runtime/gpu/gpu_device.cc:1304] Created TensorFlow device (/job:localhost/replica:0/task:0/device:GPU:0 with 3040 MB memory) -> physical GPU (device: 0, name: GeForce GTX 960M, pci bus id: 0000:01:00.0, compute capability: 5.0)
Model: "sequential"
_________________________________________________________________
Layer (type)                 Output Shape              Param #
=================================================================
lstm (LSTM)                  (None, 3, 100)            40800
_________________________________________________________________
dropout (Dropout)            (None, 3, 100)            0
_________________________________________________________________
lstm_1 (LSTM)                (None, 3, 50)             30200
_________________________________________________________________
dropout_1 (Dropout)          (None, 3, 50)             0
_________________________________________________________________
lstm_2 (LSTM)                (None, 3, 50)             20200
_________________________________________________________________
dropout_2 (Dropout)          (None, 3, 50)             0
_________________________________________________________________
lstm_3 (LSTM)                (None, 50)                20200
_________________________________________________________________
dropout_3 (Dropout)          (None, 50)                0
_________________________________________________________________
dense (Dense)                (None, 1)                 51
=================================================================
Total params: 111,451
Trainable params: 111,451
Non-trainable params: 0
_________________________________________________________________
Train on 1160 samples, validate on 887 samples
Epoch 1/100
2020-07-13 19:11:11.170534: I tensorflow/stream_executor/platform/default/dso_loader.cc:44] Successfully opened dynamic library cublas64_100.dll
…
