…
2020-07-04 11:48:26.189684: I tensorflow/core/common_runtime/gpu/gpu_device.cc:1178] 0:   N
2020-07-04 11:48:26.198153: I tensorflow/core/common_runtime/gpu/gpu_device.cc:1304] Created TensorFlow device (/job:localhost/replica:0/task:0/device:GPU:0 with 3040 MB memory) -> physical GPU (device: 0, name: GeForce GTX 960M, pci bus id: 0000:01:00.0, compute capability: 5.0)
Model: "sequential_1"
_________________________________________________________________
Layer (type)                 Output Shape              Param #
=================================================================
lstm_1 (LSTM)                (None, 60, 100)           40800
_________________________________________________________________
dropout_1 (Dropout)          (None, 60, 100)           0
_________________________________________________________________
lstm_2 (LSTM)                (None, 60, 50)            30200
_________________________________________________________________
dropout_2 (Dropout)          (None, 60, 50)            0
_________________________________________________________________
lstm_3 (LSTM)                (None, 60, 50)            20200
_________________________________________________________________
dropout_3 (Dropout)          (None, 60, 50)            0
_________________________________________________________________
lstm_4 (LSTM)                (None, 50)                20200
_________________________________________________________________
dropout_4 (Dropout)          (None, 50)                0
_________________________________________________________________
dense_1 (Dense)              (None, 1)                 51
=================================================================
Total params: 111,451
Trainable params: 111,451
Non-trainable params: 0
_________________________________________________________________
Train on 3055 samples, validate on 881 samples
Epoch 1/100
2020-07-04 11:48:37.847380: I tensorflow/stream_executor/platform/default/dso_loader.cc:44] Successfully opened dynamic library cublas64_100.dll
…
